…
marketdrug/invivo_allainstock_KNIME_rm_nu_11-24_test_rdkit_2d_normalized.npy --no_features_scaling --metric auc --init_lr 5e-4 --max_lr 5e-4 --final_lr 5e-4 --s ../pipeline/druglikeness/normal_active_alldruglikeainstock_v4_nopretrain_firsttrain_05-10_s --mode active --depth 2 --hidden_size 300 --ffn_num_layer 2 --batch_size 500 --target_columns label --smiles_column smiles --fold 0 --round 0
iteration 0
Class sizes
label 0: 78.61%, 1: 21.39%
Building model 0
DMPNN(
  (sigmoid): Sigmoid()
  (encoder): MPNEncoder(
    (dropout_layer): Dropout(p=0.0, inplace=False)
    (act_func): ReLU()
    (W_i): Linear(in_features=147, out_features=300, bias=False)
    (W_h): Linear(in_features=300, out_features=300, bias=False)
    (W_o): Linear(in_features=433, out_features=300, bias=True)
  )
  (ffn): Sequential(
    (0): Dropout(p=0.0, inplace=False)
    (1): Linear(in_features=500, out_features=300, bias=True)
    (2): ReLU()
    (3): Dropout(p=0.0, inplace=False)
    (4): Linear(in_features=300, out_features=1, bias=True)
  )
)
Number of parameters = 414,901
Moving model to cuda
Epoch 0
Loss = 6.9956e-01, PNorm = 35.1186, GNorm = 2.5162, lr_0 = 5.0000e-04
Loss = 5.1539e-01, PNorm = 35.1208, GNorm = 0.9708, lr_0 = 5.0000e-04
Loss = 4.8258e-01, PNorm = 35.1231, GNorm = 0.3710, lr_0 = 5.0000e-04
Loss = 5.8519e-01, PNorm = 35.1245, GNorm = 1.1861, lr_0 = 5.0000e-04
Loss = 5.4943e-01, PNorm = 35.1256, GNorm = 1.0644, lr_0 = 5.0000e-04
…
marketdrug/invivo_allainstock_KNIME_rm_nu_11-24_test_rdkit_2d_normalized.npy --no_features_scaling --metric auc --init_lr 5e-4 --max_lr 5e-4 --final_lr 5e-4 --s ../pipeline/druglikeness/normal_active_alldruglikeainstock_v4_nopretrain_firsttrain_05-10_s --mode active --depth 2 --hidden_size 300 --ffn_num_layer 2 --batch_size 500 --target_columns label --smiles_column smiles --fold 1 --round 0
iteration 0
Class sizes
label 0: 78.44%, 1: 21.56%
Building model 0
DMPNN(
  (sigmoid): Sigmoid()
  (encoder): MPNEncoder(
    (dropout_layer): Dropout(p=0.0, inplace=False)
    (act_func): ReLU()
    (W_i): Linear(in_features=147, out_features=300, bias=False)
    (W_h): Linear(in_features=300, out_features=300, bias=False)
    (W_o): Linear(in_features=433, out_features=300, bias=True)
  )
  (ffn): Sequential(
    (0): Dropout(p=0.0, inplace=False)
    (1): Linear(in_features=500, out_features=300, bias=True)
    (2): ReLU()
    (3): Dropout(p=0.0, inplace=False)
    (4): Linear(in_features=300, out_features=1, bias=True)
  )
)
Number of parameters = 414,901
Moving model to cuda
iteration 0
iteration 0
Class sizes
label 0: 78.49%, 1: 21.51%
Building model 0
Class sizes
label 0: 78.65%, 1: 21.35%
Building model 0
DMPNN(
  (sigmoid): Sigmoid()
  (encoder): MPNEncoder(
    (dropout_layer): Dropout(p=0.0, inplace=False)
    (act_func): ReLU()
    (W_i): Linear(in_features=147, out_features=300, bias=False)
    (W_h): Linear(in_features=300, out_features=300, bias=False)
    (W_o): Linear(in_features=433, out_features=300, bias=True)
  )
  (ffn): Sequential(
    (0): Dropout(p=0.0, inplace=False)
    (1): Linear(in_features=500, out_features=300, bias=True)
    (2): ReLU()
    (3): Dropout(p=0.0, inplace=False)
    (4): Linear(in_features=300, out_features=1, bias=True)
  )
)
Number of parameters = 414,901
Moving model to cuda
DMPNN(
  (sigmoid): Sigmoid()
  (encoder): MPNEncoder(
    (dropout_layer): Dropout(p=0.0, inplace=False)
    (act_func): ReLU()
    (W_i): Linear(in_features=147, out_features=300, bias=False)
    (W_h): Linear(in_features=300, out_features=300, bias=False)
    (W_o): Linear(in_features=433, out_features=300, bias=True)
  )
  (ffn): Sequential(
    (0): Dropout(p=0.0, inplace=False)
    (1): Linear(in_features=500, out_features=300, bias=True)
    (2): ReLU()
    (3): Dropout(p=0.0, inplace=False)
    (4): Linear(in_features=300, out_features=1, bias=True)
  )
)
Number of parameters = 414,901
Moving model to cuda
iteration 0
Class sizes
label 0: 78.63%, 1: 21.37%
Building model 0
DMPNN(
  (sigmoid): Sigmoid()
  (encoder): MPNEncoder(
    (dropout_layer): Dropout(p=0.0, inplace=False)
    (act_func): ReLU()
    (W_i): Linear(in_features=147, out_features=300, bias=False)
    (W_h): Linear(in_features=300, out_features=300, bias=False)
    (W_o): Linear(in_features=433, out_features=300, bias=True)
  )
  (ffn): Sequential(
    (0): Dropout(p=0.0, inplace=False)
    (1): Linear(in_features=500, out_features=300, bias=True)
    (2): ReLU()
    (3): Dropout(p=0.0, inplace=False)
    (4): Linear(in_features=300, out_features=1, bias=True)
  )
)
Number of parameters = 414,901
Moving model to cuda
Epoch 0
Epoch 0
Epoch 0
Epoch 0
Loss = 7.0447e-01, PNorm = 35.1189, GNorm = 2.6647, lr_0 = 5.0000e-04
Loss = 7.0076e-01, PNorm = 35.1188, GNorm = 2.5690, lr_0 = 5.0000e-04
Loss = 7.0127e-01, PNorm = 35.1188, GNorm = 2.8145, lr_0 = 5.0000e-04
Loss = 7.0703e-01, PNorm = 35.1192, GNorm = 2.9593, lr_0 = 5.0000e-04
…
